2022-11-24 11:11:31,909 - root - INFO - Building Agent.
Entity: 2566908, Relation: 6650, Word: 20049
Entity: 2566908, Relation: 6650, Word: 20049
2022-11-24 11:11:35,409 - root - INFO - Architecture: NsmAgent(
  (model): GNNModel(
    (relation_embedding): Embedding(6650, 200)
    (word_embedding): Embedding(20050, 300, padding_idx=20049)
    (entity_linear): Linear(in_features=100, out_features=50, bias=True)
    (relation_linear): Linear(in_features=200, out_features=50, bias=True)
    (lstm_drop): Dropout(p=0.3, inplace=False)
    (linear_drop): Dropout(p=0.2, inplace=False)
    (type_layer): TypeLayer(
      (linear_drop): Dropout(p=0.2, inplace=False)
      (kb_self_linear): Linear(in_features=50, out_features=50, bias=True)
    )
    (kld_loss): KLDivLoss()
    (bce_loss_logits): BCEWithLogitsLoss()
    (mse_loss): MSELoss()
    (reasoning): GNNReasoning(
      (lstm_drop): Dropout(p=0.3, inplace=False)
      (linear_drop): Dropout(p=0.2, inplace=False)
      (softmax_d1): Softmax(dim=1)
      (score_func): Linear(in_features=50, out_features=1, bias=True)
      (rel_linear0): Linear(in_features=50, out_features=50, bias=True)
      (e2e_linear0): Linear(in_features=100, out_features=50, bias=True)
      (rel_linear1): Linear(in_features=50, out_features=50, bias=True)
      (e2e_linear1): Linear(in_features=100, out_features=50, bias=True)
      (rel_linear2): Linear(in_features=50, out_features=50, bias=True)
      (e2e_linear2): Linear(in_features=100, out_features=50, bias=True)
      (rel_linear3): Linear(in_features=50, out_features=50, bias=True)
      (e2e_linear3): Linear(in_features=100, out_features=50, bias=True)
    )
    (instruction): LSTMInstruction(
      (lstm_drop): Dropout(p=0.3, inplace=False)
      (linear_drop): Dropout(p=0.2, inplace=False)
      (word_embedding): Embedding(20050, 300, padding_idx=20049)
      (node_encoder): LSTM(300, 50, batch_first=True)
      (cq_linear): Linear(in_features=100, out_features=50, bias=True)
      (ca_linear): Linear(in_features=50, out_features=1, bias=True)
      (question_linear0): Linear(in_features=50, out_features=50, bias=True)
      (question_linear1): Linear(in_features=50, out_features=50, bias=True)
      (question_linear2): Linear(in_features=50, out_features=50, bias=True)
      (question_linear3): Linear(in_features=50, out_features=50, bias=True)
    )
  )
)
2022-11-24 11:11:35,410 - root - INFO - Agent params: 7478802.0
Loading pre trained model from /home/mist/cloud/Numerical/checkpoint/CWQ_num/CWQ_nsm-h1.ckpt
2022-11-24 11:11:35,779 - root - INFO - Load param of relation_embedding.weight, word_embedding.weight, entity_linear.weight, entity_linear.bias, relation_linear.weight, relation_li
…
